weights.pt (torch, 817314 bytes, 12 tensors)

lstm.weight_ih_l0 f4 [512, 8]
0.214398 0.063471004 0.15444821 0.03093605 -0.04154034 0.022320991 0.022130122 -0.090683155
-0.35743827 -0.06106602 -0.17158468 -0.2345357 -0.26215523 -0.11866944 0.18204887 -0.01832741
0.16482243 0.15028411 0.12230383 -0.003930842 -0.18041845 0.1268394 0.33499098 -0.107490465
0.35470667 -0.20327526 0.27171192 -0.13350822 -0.05101609 -0.0031616716 0.23488002 0.20595154
-0.39998308 -0.20474865 -0.21303107 -0.41938573 -0.3298881 -0.3131501 0.15223317 0.21996568
-0.109834045 0.018664919 0.0823602 -0.22068736 0.1029327 -0.1361837 0.111612745 0.23995033
-0.4010895 -0.14840372 0.043816406 -0.12812799 0.15927652 0.29739547 -0.22297762 0.29781252
0.098746926 0.280457 -0.04834096 0.23477815 -0.40715754 -0.10366244 0.27001134 0.04111986
-0.5132061 -0.5350879 0.05685407 -0.27689365 -0.034723658 -0.70464104 -0.23478727 -0.34259507
0.14484894 -0.020757195 0.00787577 -0.088644706 -0.20296259 -0.007612792 -0.10955388 -0.15783831
0.34416002 0.07005379 0.2568748 0.17091963 -0.05514299 -0.04700723 0.07888608 -0.26606774
1.0738881 0.4712724 0.2504929 0.2135554 -0.36150324 0.30105633 0.6531734 0.64154303
-0.044128254 0.17721054 -0.18207504 -0.45866457 0.10042727 0.17864831 0.39927208 0.34097773
0.32464188 -0.35892385 0.25347093 -0.30944717 -0.034668542 0.1092221 0.43620175 0.36582953
-0.34074616 0.054712377 -0.2945702 0.050944462 0.09486645 0.22137542 -0.13928804 0.33026624
0.45074075 -0.1329907 0.11693033 0.008941365 -0.0812246 -0.004471438 0.43948957 0.040773686
-0.07405493 0.19850922 0.24588233 0.26675528 0.31717327 0.1591448 -0.33056542 0.083315395
0.23619956 0.1992066 0.003964871 0.24055059 0.0031852948 -0.29479337 -0.11597501 0.024664123
-0.14631787 0.06616901 -0.09529485 -0.22800224 -0.038068954 0.265351 0.029081589 0.15221171
-0.21892963 0.21500194 -0.18171418 0.15674132 -0.21077836 -0.02194107 -0.06450888 -0.08252947
0.021731535 -0.07102038 -0.024793519 -0.2122313 -0.20704465 -0.17844209 0.43239194 -0.046588056
-0.037517495 -0.12720431 0.020710403 -0.30810794 -0.100243025 -0.16338992 0.21177973 0.16314851
-0.097526334 0.14843611 -0.07933303 0.24725406 -0.2515118 -0.04508663 0.051303037 0.013574754
0.04330759 0.13572276 -0.06599714 -0.14754263 -0.29602808 -0.11272643 -0.07828959 0.28840336
0.68383956 0.121102326 0.2159048 0.23114769 -0.2722889 -0.29255685 -0.084510416 -0.3130229
0.0003138199 0.13893306 -0.09184981 0.11860635 0.013295917 0.06886095 0.25441003 0.12212097
0.18669221 0.18483384 -0.057605896 0.088950835 -0.24676669 0.2337803 -0.012137126 0.13693811
0.2247703 -0.059385344 0.35864705 0.05338097 -0.0711392 -0.06242749 0.22582906 -0.03289157
0.16896707 0.0068041235 -0.1032885 -0.21552548 -0.28227583 -0.058225296 0.124466866 0.018673535
-0.4690334 0.15135708 -0.07052364 0.013260738 -0.10445555 0.25816664 -0.24009277 0.35009372
-0.15218 0.08311712 0.04266908 0.11345906 0.40993682 0.44334894 0.13861041 0.5194138
0.03400129 -0.1305341 0.10732065 -0.21148522 -0.19745556 -0.014841451 0.26210183 -0.23604576
00000000: 268b 5b3e 16fd 813d ac27 1e3e 996d fd3c
00000010: 3426 2abd 83da b63c 3b4a b53c 17b8 b9bd
00000020: 2602 b7be 5d20 7abd e5b3 2fbe 202a 70be
00000030: 3639 86be f708 f3bd 056b 3a3e 5d23 96bc
00000040: 36c7 283e 14e4 193e 6e7a fa3d 4bce 80bb
00000050: 9dbf 38be 30e2 013e f083 ab3e f623 dcbd
00000060: 1d9c b53e 6427 50be d31d 8b3e 61b6 08be
00000070: 3ff6 50bd 0c34 4fbb 6384 703e f6e4 523e
00000080: 95ca ccbe a1a9 51be d124 5abe bab9 d6be
00000090: 18e7 a8be 3655 a0be 03e3 1b3e af3e 613e
000000a0: acf0 e0bd 2ce7 983c 77ac a83d defb 61be
000000b0: 61ce d23d bd73 0bbe 3995 e43d 8ab5 753e
000000c0: 9a5b cdbe 25f7 17be d578 333d fc33 03be
000000d0: 6219 233e 3844 983e 3f54 64be e27a 983e
000000e0: d43b ca3d 0f98 8f3e 2c01 46bd af69 703e
000000f0: f476 d0be f94c d4bd ed3e 8a3e 4c6d 283d
00000100: 7a61 03bf 85fb 08bf d0df 683d 01c5 8dbe
00000110: 653a 0ebd 5b63 34bf 136c 70be 9f68 afbe
00000120: 4853 143e fe0a aabc 6009 013c 5b8b b5bd
00000130: 6dd5 4fbe ba74 f9bb c95d e0bd 5ea0 21be
00000140: be35 b03e 5d78 8f3d 1885 833e 8e05 2f3e
00000150: 9edd 61bd a78a 40bd 068f a13d 083a 88be
00000160: 2a75 893f 9e4a f13e 9b40 803e 44ae 5a3e
00000170: f416 b9be 0e24 9a3e 5f36 273f 2a3c 243f
00000180: d4bf 34bd ae76 353e e171 3abe 15d6 eabe
00000190: d0ac cd3d 95ef 363e 646d cc3e a294 ae3e
000001a0: 7637 a63e dec4 b7be f1c6 813e dc6f 9ebe
000001b0: 9a00 0ebd d6af df3d d655 df3e 024e bb3e
000001c0: 4876 aebe 161a 603d e8d1 96be 24ab 503d
000001d0: 5749 c23d 3db0 623e 86a1 0ebe a818 a93e
000001e0: 7ec7 e63e b72e 08be 2b79 ef3d ce7e 123c
000001f0: 1559 a6bd 2485 92bb c704 e13e 4f02 273d
00000200: 1caa 97bd 0046 4b3e 94c8 7b3e 2694 883e
00000210: 8964 a23e dbf6 223e df3f a9be 43a1 aa3d
00000220: 4cde 713e d1fc 4b3e c0eb 813b e552 763e
00000230: 61c0 503b 28ef 96be 4e84 edbd 6a0c ca3c
00000240: 5ad4 15be 9e83 873d f229 c3bd 6b79 69be
00000250: 31ee 1bbd 16dc 873e 833c ee3c 63dd 1b3e
00000260: 172f 60be 7829 5c3e 4813 3abe cc80 203e
00000270: 48d6 57be c2bd b3bc 3b1d 84bd 3605 a9bd
00000280: 5506 b23c 2273 91bd c71b cbbc 2953 59be
00000290: 8303 54be 86b9 36be 7a62 dd3e 1ed3 3ebd
000002a0: f2ab 19bd d941 02be dda8 a93c 53c0 9dbe
000002b0: 374c cdbd b04f 27be c9dc 583e 6710 273e
000002c0: e3bb c7bd a3ff 173e 5b79 a2bd 2b30 7d3e
000002d0: 28c6 80be c2ac 38bd 2223 523d a568 5e3c
000002e0: 4d63 313d e8fa 0a3e 8229 87bd 6a15 17be
000002f0: fe90 97be 1ddd e6bd 4b56 a0bd 9ba9 933e
00000300: 1c10 2f3f 7f04 f83d 2616 5d3e fbb1 6c3e
00000310: 7369 8bbe 03ca 95be cc13 adbd 8a44 a0be
00000320: 3288 a439 7844 0e3e c11b bcbd e3e7 f23d
00000330: 1ed7 593c f806 8d3d 0842 823e 8f1a fa3d
00000340: 3e2c 3f3e 1545 3d3e 29f4 6bbd db2b b63d
00000350: 68b0 7cbe 1a64 6f3e ccda 46bc 8139 0c3e
00000360: 2f2a 663e 0c3e 73bd 96a0 b73e 01a6 5a3d
00000370: 6eb1 91bd f8b3 7fbd bc3f 673e 50b9 06bd
00000380: b405 2d3e 20f5 de3b ec88 d3bd b6b2 5cbe
00000390: 7586 90be a67d 6ebd 7ce8 fe3d 3ef9 983c
000003a0: 2525 f0be 5afd 1a3e b36e 90bd 9143 593c
000003b0: cbec d5bd 6b2e 843e e1da 75be 7c3f b33e
000003c0: 13d5 1bbe 4f39 aa3d c6c5 2e3d 395d e83d
000003d0: 3de3 d13e a2fe e23e e3ef 0d3e 4ef8 043f
000003e0: f044 0b3d bbaa 05be eeca db3d 958f 58be
000003f0: ca31 4abe 8f29 73bc 3632 863e fbb5 71be

lstm.weight_hh_l0 f4 [512, 128]
0.013024027 0.42163634 0.169927 0.17925607 0.2599281 0.082484655 0.0034427792 -0.20614153
0.12769815 0.14752807 0.120196864 -0.032565072 0.10966209 -0.30499712 0.054620616 0.0054810382
0.06661085 0.21453618 -0.1257748 0.24337882 -0.16352196 -0.004741675 -0.2861025 -0.055388268
-0.15566666 -0.21305501 0.06623378 0.288459 -0.15601207 0.2295771 0.20259649 -0.097287215
0.036328692 0.14712036 0.17870632 0.027345752 -0.0036444166 -0.21880996 -0.120157175 0.14906918
-0.099589586 0.2810614 -0.28106695 0.1020464 0.025996907 0.3835965 -0.16729048 -0.038386874
0.12203706 0.303893 0.027481778 -0.035541218 0.019413272 0.00518446 0.012822671 -0.013955379
-0.0051585636 0.011545547 0.013412284 -0.17765576 -0.33091122 -0.20134833 -0.0019544042 0.03597285
0.394893 -0.12710714 -0.18388975 -0.08630808 0.20609908 -0.22978055 0.0041616587 0.022394035
-0.26921117 0.076159835 -0.23338683 -0.0447856 0.13336383 -0.09710736 -0.017518925 -0.47132462
-0.45045805 0.082058206 0.076090045 -0.06948738 -0.06596027 0.039747808 -0.14487246 0.056753937
-0.031862147 0.021994496 0.195447 -0.117860325 -0.025608115 0.3912417 -0.2317782 0.34923062
-0.22127853 0.12340947 -0.13087142 -0.08335093 -0.0043926896 -0.3026773 -0.060966488 0.2349873
-0.27187756 0.05121026 0.17167385 -0.04007493 -0.10095171 -0.6140824 -0.080664545 -0.14934795
0.24365322 0.15247124 -0.034327667 0.27192792 0.023661776 -0.29738152 -0.12622109 0.08529099
-0.17347558 0.0622591 0.21860448 -0.24317145 -0.03778541 -0.020735104 -0.10604219 -0.08965638
0.38787216 0.15033036 -0.2394622 0.013356013 0.06684641 0.24915594 -0.49766165 -0.17592739
-0.15767579 -0.40347883 -0.31967935 0.14864232 -0.028570391 0.27455243 0.19657646 0.26904896
0.14016685 0.10842135 -0.040450137 0.17262736 0.19407906 -0.15851012 -0.14508794 0.01036461
0.32133305 -0.07686967 0.31886756 -0.13015139 0.17613915 0.11106846 0.21431233 0.1381934
0.028687293 0.34537962 -0.2505443 0.32176542 0.24338968 0.03470007 0.065126136 -0.052481722
-0.086721174 -0.12566265 -0.046364624 0.10312939 0.38963124 -0.14879546 -0.02915564 0.10644873
0.09541449 -0.23141846 -0.0024867028 -0.17062037 0.30121982 -0.31684127 -0.145893 -0.17376363
0.12365846 -0.3586381 0.06374224 0.35235503 0.05613779 -0.23047592 0.13790396 -0.38104618
-0.024097057 0.0077432245 0.24834542 0.2827929 0.21878834 0.052520268 0.3020372 -0.009578122
0.059278253 0.188066 0.24828593 0.19680391 -0.20288907 0.089256376 -0.15828338 -0.22175384
-0.054617386 0.1449506 -0.026042214 0.30122757 0.031434268 -0.2845271 -0.15733396 -0.4013431
-0.12870699 0.09530205 0.15894929 -0.25559568 0.036067 -0.23582874 -0.16536373 0.058139417
-0.18724021 0.26445323 -0.4275111 0.32299235 0.11317206 0.022156484 0.21003765 -0.3637184
-0.16965598 0.23548527 0.23020498 0.01814422 0.056538995 0.008947709 -0.2559864 0.39019755
0.1288307 -0.48773485 -0.2285709 -0.024446152 -0.16490622 -0.28663138 -0.39578286 -0.11361452
-0.14413732 -0.054148 -0.24992572 -0.053083073 -0.31460714 0.062633194 -0.20684747 -0.31073704
00000000: bb62 553c b8e0 d73e 5801 2e3e e78e 373e
00000010: 4c15 853e b7ed a83d 40a0 613b c416 53be
00000020: 4ec3 023e 9911 173e c629 f63d f462 05bd
00000030: 8596 e03d 9528 9cbe deb9 5f3d 489a b33b
00000040: 456b 883d 5faf 5b3e 1ccb 00be 4c38 793e
00000050: 4d72 27be 0e60 9bbb 077c 92be cfde 62bd
00000060: 1567 1fbe 182b 5abe 93a5 873d e6b0 933e
00000070: a1c1 1fbe 4216 6b3e 7475 4f3e 853e c7bd
00000080: 65cd 143d b8a6 163e cafe 363e 3304 e03c
00000090: 2ad7 6ebb b80f 60be f714 f6bd 97a5 183e
000000a0: a0f5 cbbd 48e7 8f3e 02e8 8fbe b4fd d03d
000000b0: 77f7 d43c c366 c43e 324e 2bbe 8e3b 1dbd
000000c0: 91ee f93d dd97 9b3e 7721 e13c ab93 11bd
000000d0: 9508 9f3c 67e2 a93b 2e16 523c 1aa5 64bc
000000e0: 2b09 a9bb 8929 3d3c 32bf 5b3c 64eb 35be
000000f0: 326d a9be 422e 4ebe 7615 00bb 4458 133d
00000100: 6a2f ca3e 6028 02be 984d 3cbe 4ac2 b0bd
00000110: a30b 533e 984b 6bbe 865e 883b b273 b73c
00000120: 0cd6 89be b0f9 9b3d f5fc 6ebe 1b71 37bd
00000130: 8790 083e 39e0 c6bd d983 8fbc 7651 f1be
00000140: 70a2 e6be 220e a83d 19d5 9b3d 664f 8ebd
00000150: 2e16 87bd 99ce 223d 7259 14be d176 683d
00000160: e281 02bd cd2d b43c 4223 483e c160 f1bd
00000170: 1cc8 d1bc d550 c83e 4457 6dbe 5bce b23e
00000180: d796 62be 1bbe fc3d 2803 06be e4b3 aabd
00000190: 8df0 8fbb 85f8 9abe ffb7 79bd 83a0 703e
000001a0: 8933 8bbe d9c1 513d 45cb 2f3e 9c25 24bd
000001b0: c5bf cebd 8134 1dbf 7433 a5bd abee 18be
000001c0: 3b80 793e 6c21 1c3e 2b9b 0cbd 233a 8b3e
000001d0: 57d6 c13c 6442 98be 1a40 01be 0bad ae3d
000001e0: 95a3 31be 6603 7f3d dad9 5f3e f001 79be
000001f0: e0c4 1abd aadc a9bc a62c d9bd c49d b7bd
00000200: 2e97 c63e 34f0 193e 9435 75be 2ed3 5a3c
00000210: c5e6 883d bc22 7f3e 82cd febe 4f26 34be
00000220: c375 21be c794 cebe 03ad a3be b135 183e
00000230: 740c eabc 2392 8c3e 574b 493e c9c0 893e
00000240: e687 0f3e 030c de3d 0baf 25bd 3ac5 303e
00000250: a9bc 463e 7a50 22be ef91 14be 53d0 293c
00000260: c485 a43e d86d 9dbd 9c42 a33e 6846 05be
00000270: d25d 343e dc77 e33d b174 5b3e 9282 0d3e
00000280: 9d01 eb3c 99d5 b03e 5847 80be 70be a43e
00000290: 253b 793e a921 0e3d da60 853d 13f7 56bd
000002a0: df9a b1bd b6ad 00be d5e8 3dbd 8035 d33d
000002b0: bf7d c73e d65d 18be cfd7 eebc cb01 da3d
000002c0: ac68 c33d f6f8 6cbe f3f7 22bb 1bb7 2ebe
000002d0: 7c39 9a3e 0539 a2be f964 15be 18ef 31be
000002e0: a640 fd3d 6a9f b7be 4b8b 823d e167 b43e
000002f0: bdf0 653d e101 6cbe b236 0d3e 7c18 c3be
00000300: 3167 c5bc e0ba fd3b 434e 7e3e 3bca 903e
00000310: 0d0a 603e 7e1f 573d 9fa4 9a3e 8eed 1cbc
00000320: c1cd 723d 6094 403e ab3e 7e3e f786 493e
00000330: 27c2 4fbe 0ccc b63d 0a15 22be 7013 63be
00000340: 7bb6 5fbd ee6d 143e 7b56 d5bc 803a 9a3e
00000350: 38c1 003d 89ad 91be 271c 21be d87c cdbe
00000360: c4cb 03be b92d c33d 9ac3 223e 70dd 82be
00000370: feba 133d 177d 71be 1c55 29be 9923 6e3d
00000380: e6bb 3fbe 6a66 873e bce2 dabe 415f a53e
00000390: c1c6 e73d 8481 b53c 1c14 573e 4c39 babe
000003a0: 4cba 2dbe 0d23 713e dbba 6b3e 30a3 943c
000003b0: 6f95 673d 6999 123c a610 83be f9c7 c73e
000003c0: 32ec 033e 62b8 f9be 7d0e 6abe 4c43 c8bc
000003d0: 2ddd 28be 59c1 92be 0da4 cabe bbae e8bd
000003e0: bc98 13be 4bca 5dbd 87ec 7fbe a36d 59bd
000003f0: 3014 a1be d545 803d d3cf 53be ed18 9fbe

lstm.bias_ih_l0 f4 [512]
-0.32846153 0.0033777757 -0.104069926 -0.27794933 0.11083007 -0.10973095 -0.068371646 -0.22050129
0.16827805 -0.07437894 0.28651446 -0.16339898 -0.28319532 0.1439018 -0.27713022 -0.24898653
0.06507262 0.09868535 -0.22595209 -0.008704852 -0.15010892 0.043616127 -0.1518439 -0.059990074
0.2172345 -0.19977407 0.0044459496 0.12401472 -0.117756374 -0.13894273 -0.46071446 -0.09222783
-0.113451146 -0.13114539 0.005292096 -0.19182122 0.014155496 -0.09667867 -0.1293324 -0.1701315
0.30327666 0.26847887 0.11159929 -0.40594515 -0.25352612 0.13115695 0.024762508 -0.058670558
-0.15766427 -0.074105375 -0.009618833 0.012930647 -0.025710998 -0.08610776 0.14250584 0.010923755
-0.1364878 0.2534658 0.030019507 -0.022985725 -0.22104399 -0.1441358 -0.079092 -0.21062972
-0.18003246 -0.16450186 0.23770738 -0.12068326 -0.14365415 -0.15202165 -0.11605004 -0.1317966
0.048855983 0.00019992593 -0.20676367 0.051308382 0.026665634 0.025527917 0.106819235 -0.03434149
-0.11640288 -0.21132717 0.18624845 -0.18864489 -0.36098984 -0.14554304 -0.07047156 -0.3489259
-0.21941932 0.053766806 -0.04637151 0.026576396 -0.005633054 0.020219104 -0.045035593 -0.0753531
-0.423527 -0.17458636 0.06823084 -0.028704174 0.103852406 -0.25381696 -0.25142473 0.36643305
0.03209595 -0.2931299 -0.096197695 -0.04864613 -0.2574128 0.17915565 0.19982916 0.10342996
-0.025957849 0.2869286 0.06137778 0.36012876 -0.31503686 -0.10305212 0.11133468 -0.038450167
-0.38906762 -0.19744536 -0.22211133 0.0040386165 -0.023171844 -0.17717712 -0.04584246 -0.017872903
-0.33693478 0.09076938 -0.19299239 -0.11706148 0.22360316 -0.067825556 -0.19794004 -0.012856282
-0.022028191 0.01753588 0.45062566 0.13160215 -0.00915409 0.1246506 -0.2419846 -0.26361698
-0.20429087 -0.03749156 -0.10686854 -0.06777954 -0.115960404 -0.047384094 -0.2816787 -0.318672
0.050693113 -0.20432329 0.12179752 0.13417462 0.19611952 -0.2849824 -0.17514765 -0.12526938
-0.088097915 -0.09439541 -0.12707978 -0.20689125 -0.09853645 -0.24985957 -0.040096454 -0.134705
0.061462652 0.24423346 0.28251526 -0.21057564 -0.2374533 0.19270597 0.077232525 -0.0774619
-0.1167476 0.22548343 0.0043936367 -0.04229258 -0.13551839 0.025770672 0.08018104 -0.12764633
0.19424318 -0.11494946 0.0046439166 0.20638366 -0.25745034 -0.2269608 -0.19524091 -0.1075598
-0.072989434 -0.3765658 0.20173582 -0.060402483 -0.10540538 -0.23749769 -0.119258635 -0.1375212
-0.30837646 -0.022664208 -0.24984819 0.079170875 -0.12698337 -0.010365728 0.11465143 0.32824764
0.10874624 -0.23291105 -0.037532046 -0.2100091 -0.19541839 0.011831472 -0.016452188 -0.20839907
-0.060786337 0.0012346114 -0.055715583 -0.025487935 -0.06871022 -0.023084559 0.027961504 -0.24546322
-0.30688024 -0.119526036 0.046804383 -0.020386148 -0.04445635 -0.25046542 -0.14881082 0.28588918
-0.083874434 -0.16938849 0.0056796432 0.0051403698 -0.35732517 -0.0024001622 0.01721722 0.016273921
-0.094052546 0.18982168 0.017258441 0.29942033 -0.17955342 -0.22266437 0.10675727 -0.099113226
-0.6122815 -0.15902373 -0.12531942 -0.08499871 -0.12549928 -0.07543228 -0.14358452 -0.109600134
00000000: 1c2c a8be ac5d 5d3b 9d22 d5bd 604f 8ebe
00000010: e0fa e23d 9fba e0bd 6f06 8cbd 17cb 61be
00000020: 1551 2c3e fc53 98bd 06b2 923e 1052 27be
00000030: fafe 90be fe5a 133e 03e4 8dbe 53f6 7ebe
00000040: cb44 853d 8b1b ca3d fc5f 67be cc9e 0ebc
00000050: 27b6 19be d3a6 323d f87c 1bbe 27b8 75bd
00000060: b972 5e3e 9391 4cbe 54af 913b 6efb fd3d
00000070: 412a f1bd 0147 0ebe c4e2 ebbe f2e1 bcbd
00000080: 1359 e8bd fa4a 06be 5269 ad3b c86c 44be
00000090: 74ec 673c 77ff c5bd b66f 04be f436 2ebe
000000a0: 1447 9b3e 1076 893e 2b8e e43d 0bd8 cfbe
000000b0: 2dce 81be 024e 063e beda ca3c 8a50 70bd
000000c0: be72 21be 8fc4 97bd 4f98 1dbc 10db 533c
000000d0: df9f d2bc 4459 b0bd 0ded 113e 8df9 323c
000000e0: 75c3 0bbe 45c6 813e 78eb f53c 8f4c bcbc
000000f0: 5b59 62be 5698 13be fdfa a1bd 51af 57be
00000100: 6e5a 38be 2d73 28be 9069 733e c928 f7bd
00000110: 131a 13be 90ab 1bbe a5ab edbd b0f5 06be
00000120: 361d 483d 35a3 5139 dbb9 53be bd28 523d
00000130: e371 da3c ec1f d13c 0bc4 da3d aaa9 0cbd
00000140: a264 eebd 2666 58be eab7 3e3e 202c 41be
00000150: a9d3 b8be 3c09 15be 6553 90bd 6aa6 b2be
00000160: 75af 60be 953a 5c3d 0df0 3dbd beb6 d93c
00000170: 7b95 b8bb 89a2 a53c 3e77 38bd ba52 9abd
00000180: 88d8 d8be c4c6 32be 9cbc 8b3d 0425 ebbc
00000190: 92b0 d43d 4cf4 81be beba 80be 1d9d bb3e
000001a0: 0b77 033d 1f15 96be 4c03 c5bd 2a41 47bd
000001b0: 9ccb 83be 9474 373e 04a0 4c3e 16d3 d33d
000001c0: 8ea5 d4bc 4ee8 923e 4467 7b3d cc62 b83e
000001d0: 834c a1be fd0c d3bd 7003 e43d ec7d 1dbd
000001e0: df33 c7be 1e2f 4abe 2771 63be 5f56 843b
000001f0: e1d2 bdbc eb6d 35be 4ec5 3bbd 326a 92bc
00000200: b782 acbe 4ce5 b93d cc9f 45be eebd efbd
00000210: 3af8 643e 20e8 8abd cbb0 4abe 28a3 52bc
00000220: 7774 b4bc 68a7 8f3c 68b8 e63e b7c2 063e
00000230: 09fb 15bc d048 ff3d d0ca 77be cef8 86be
00000240: a031 51be c090 19bd e5dd dabd 00d0 8abd
00000250: a67c edbd d315 42bd 3138 90be fa28 a3be
00000260: 95a3 4f3d 203a 51be fa70 f93d 1265 093e
00000270: 8ed3 483e 37e9 91be e859 33be 9e46 00be
00000280: ae6c b4bd 6152 c1bd 3421 02be 4ddb 53be
00000290: 7acd c9bd 30db 7fbe 2e3c 24bd 1cf0 09be
000002a0: 43c0 7b3d 5618 7a3e d7a5 903e 24a1 57be
000002b0: f526 73be b754 453e 162c 9e3d 58a4 9ebd
000002c0: 5e19 efbd 21e5 663e 7ff8 8f3b fc3a 2dbd
000002d0: 55c5 0abe 041d d33c f535 a43d b8b5 02be
000002e0: afe7 463e 9f6a ebbd ff2b 983b 3d56 533e
000002f0: 88d0 83be 6968 68be 3ced 47be 5048 dcbd
00000300: 7c7b 95bd 3ccd c0be d693 4e3e 9868 77bd
00000310: c7de d7bd 9832 73be df3d f4bd 5cd2 0cbe
00000320: 85e3 9dbe 4aaa b9bc 34d8 7fbe 5724 a23d
00000330: ee07 02be 04d5 29bc 5ece ea3d 1310 a83e
00000340: 59b6 de3d 3c80 6ebe 34bb 19bd a00c 57be
00000350: c21b 48be cad8 413c bdc6 86bc 9166 55be
00000360: 18fb 78bd afd2 a13a 0636 64bd 13cc d0bc
00000370: f2b7 8cbd d41b bdbc 860f e53c b65a 7bbe
00000380: 681f 9dbe 11ca f4bd f4b5 3f3d da00 a7bc
00000390: dd17 36bd 013d 80be dd61 18be 1160 923e
000003a0: 5cc6 abbd 2d74 2dbe 4d1c ba3b 8c70 a83b
000003b0: 53f3 b6be 0a4c 1dbb 210b 8d3c e350 853c
000003c0: 9f9e c0bd 9d60 423e 9361 8d3c 9f4d 993e
000003d0: dadc 37be 2102 64be 8ea3 da3d e0fb cabd
000003e0: 7bbe 1cbf 1ed7 22be bc53 00be ce13 aebd
000003f0: e282 00be 3d7c 9abd d207 13be 0976 e0bd

lstm.bias_hh_l0 f4 [512]
-0.37718213 0.086992 -0.0959645 -0.2920899 0.043149646 0.021827651 0.023383731 -0.068397075
0.15058602 -0.101427406 0.2296317 -0.17638871 -0.35046026 0.070916265 -0.31063077 -0.2624256
-0.06522307 0.024021333 -0.17976211 0.008325025 -0.072439946 -0.107760645 -0.15233117 -0.09932439
0.1943706 -0.1216818 0.0795194 0.107976146 -0.09066405 -0.1482431 -0.4119796 -0.013760398
-0.11002554 -0.0437403 -0.1089378 -0.10882368 -0.112229094 -0.030408151 -0.20093256 -0.09671401
0.1475048 0.26726788 0.07561419 -0.36148635 -0.1742078 0.16901366 -0.037141345 -0.025439672
-0.17253518 -0.085864626 0.09992556 0.03199299 -0.16307355 -0.014637239 0.08539062 -0.0115801245
-0.20878187 0.10501787 0.0945102 -0.07528471 -0.222955 -0.1456506 0.00060082553 -0.2324264
-0.22864263 -0.11678171 0.2944533 -0.08408112 -0.121370606 -0.12953319 -0.11020716 -0.043092154
-0.024055043 0.10991454 -0.093292266 0.020399746 -0.071012616 0.14171559 0.046357613 0.034224328
-0.06948728 -0.2458938 0.18755667 -0.19535424 -0.29025894 -0.061979357 -0.005570269 -0.41784546
-0.24126936 -0.00017436664 0.09122118 0.028577652 0.10239882 0.115320824 -0.032728 -0.20534994
-0.2976864 -0.13509929 0.0923809 -0.07333113 0.040087402 -0.23863485 -0.23140287 0.38369313
-0.07811058 -0.25267717 -0.17747551 -0.047857173 -0.12590212 0.12865365 0.11287423 0.05218361
0.0902397 0.18130477 0.14385459 0.25617483 -0.4263599 -0.09556729 0.17578313 -0.020725247
-0.42804843 -0.23868924 -0.17599605 0.102021836 0.07556939 -0.17638622 -0.19340026 -0.0270795
-0.39544705 0.050994202 -0.1362122 -0.18763016 0.21053219 0.018203467 -0.27471295 -0.12388582
0.020584622 -0.044678297 0.39080742 0.09505003 0.033925425 0.14721791 -0.1600185 -0.2961062
-0.2726378 -0.036303617 -0.117389455 -0.056505077 -0.1777172 -0.11031725 -0.19329692 -0.34020525
0.14417782 -0.10728038 0.040972732 0.0032656004 0.31126684 -0.24085845 -0.16040713 -0.041638043
-0.12456734 -0.06601727 -0.16452287 -0.19236122 -0.05756468 -0.13104734 -0.04760188 -0.22209296
0.15768498 0.25324208 0.3532816 -0.26411104 -0.20197295 0.13326316 0.06780121 -0.050444204
-0.10206371 0.24856049 -0.01882046 0.09988883 -0.13559344 -0.0069883466 0.0367993 -0.083108656
0.22993538 -0.11058844 -0.033457067 0.18045366 -0.25270468 -0.23301311 -0.110291995 -0.08895094
-0.22600803 -0.36866805 0.2700115 -0.12666202 -0.14508802 -0.17075995 -0.1632615 -0.05351146
-0.20488593 -0.15029366 -0.2305659 -0.011519158 -0.101082385 -0.05247211 0.0105642425 0.26491672
0.03206517 -0.29472867 0.06311391 -0.1991215 -0.13008972 -0.0785465 -0.07814333 -0.3453917
-0.14978522 -0.0035128014 -0.029323062 0.078530416 -0.16531268 -0.10213334 0.10347267 -0.32751733
-0.39644694 -0.18642375 0.01585909 -0.041811623 -0.048738286 -0.26235595 -0.24222127 0.3636715
-0.11655661 -0.20814157 -0.08978639 0.015477827 -0.328472 0.11648438 0.10999865 0.069063075
-0.1832953 0.20265503 0.07241717 0.29915738 -0.23143895 -0.13326302 0.124891624 -0.16069977
-0.55485886 -0.093540475 -0.03314454 0.037840713 -0.05646282 -0.08384235 -0.18149653 -0.17174494
00000000: 041e c1be dd28 b23d 0989 c4bd cf8c 95be
00000010: afbd 303d e7cf b23c 3d8f bf3c c413 8cbd
00000020: 3933 1a3e 2cb9 cfbd 9324 6b3e 3e9f 34be
00000030: 876f b3be 8c3c 913d ff0a 9fbe a65c 86be
00000040: ac93 85bd 63c8 c43c 8f13 38be b065 083c
00000050: 655b 94bd 9db1 dcbd b4fc 1bbe 966a cbbd
00000060: 1609 473e 4f34 f9bd 11db a23d 9922 dd3d
00000070: 13ae b9bd 0acd 17be fdee d2be 4b73 61bc
00000080: 1255 e1bd 0729 33bd c81a dfbd f3de debd
00000090: 5ed8 e5bd 841a f9bc 44c1 4dbe ff11 c6bd
000000a0: 800b 173e 56d7 883e 9ddb 9a3d bd14 b9be
000000b0: 8863 32be eb11 2d3e 8621 18bd dc66 d0bc
000000c0: 10ad 30be cbd9 afbd c6a5 cc3d 150b 033d
000000d0: c1fc 26be 08d1 6fbc 47e1 ae3d 90ba 3dbc
000000e0: eaca 55be 9c13 d73d 908e c13d df2e 9abd
000000f0: 514e 64be 6e25 15be b880 1d3a 3001 6ebe
00000100: 4b21 6abe 402b efbd 95c2 963e b932 acbd
00000110: 2791 f8bd 59a4 04be 4bb4 e1bd 6681 30bd
00000120: 150f c5bc e01a e13d 0410 bfbd 5e1d a73c
00000130: 106f 91bd e41d 113e 7be1 3d3d cf2e 0c3d
00000140: 594f 8ebd 96cb 7bbe db0e 403e f10a 48be
00000150: d29c 94be 11de 7dbd ce86 b6bb d7ef d5be
00000160: 510f 77be 30d6 36b9 2cd2 ba3d ae1b ea3c
00000170: 79b6 d13d 532d ec3d cc0d 06bd 4147 52be
00000180: 5a6a 98be 7857 0abe 3332 bd3d a22e 96bd
00000190: b032 243d b25c 74be e0f4 6cbe 6d73 c43e
000001a0: 71f8 9fbd e75e 81be 24bc 35be e205 44bd
000001b0: 7cec 00be c8bd 033e 9b2a e73d 7bbe 553d
000001c0: 98cf b83d f5a7 393e 9e4e 133e 5929 833e
000001d0: d84b dabe c9b8 c3bd 7e00 343e fec7 a9bc
000001e0: 2a29 dbbe f46a 74be 4f38 34be d3f0 d03d
000001f0: 20c4 9a3d 979e 34be b80a 46be d4d5 ddbc
00000200: 0978 cabe 4cdf 503d 367b 0bbe 1f22 40be
00000210: c095 573e 701f 953c 2da7 8cbe d9b7 fdbd
00000220: 15a1 a83c 9700 37bd e917 c83e 97a9 c23d
00000230: 63f5 0a3d 4bc0 163e e4db 23be 3b9b 97be
00000240: 2f97 8bbe 1ab3 14bd e269 f0bd de71 67bd
00000250: 7ffb 35be 03ee e1bd a1ef 45be 622f aebe
00000260: 5aa3 133e d1b5 dbbd 06d3 273d af03 563b
00000270: 5e5e 9f3e 99a3 76be c441 24be a78c 2abd
00000280: 291d ffbd 1034 87bd af78 28be 57fa 44be
00000290: f1c8 6bbd 4631 06be 30fa 42bd 566c 63be
000002a0: 2c78 213e f2a8 813e 53e1 b43e 9039 87be
000002b0: ffd1 4ebe 2376 083e 5cdb 8a3d 959e 4ebd
000002c0: c706 d1bd a486 7e3e 5e2d 9abc 8492 cc3d
000002d0: 02d9 0abe 80fe e4bb ddba 163d df34 aabd
000002e0: 2e74 6b3e 317c e2bd 470a 09bd d8c8 383e
000002f0: 8262 81be fd9a 6ebe c5e0 e1bd e92b b6bd
00000300: a66e 67be 0fc2 bcbe f33e 8a3e b0b3 01be
00000310: f491 14be b2db 2ebe 062e 27be d52e 5bbd
00000320: 9ecd 51be 95e6 19be 7819 6cbe daba 3cbc
00000330: 4804 cfbd ffec 56bd a515 2d3c 2aa3 873e
00000340: c556 033d ade6 96be de41 813d 82e6 4bbe
00000350: 3d36 05be fddc a0bd 9c09 a0bd 2ed7 b0be
00000360: 4c61 19be 0737 66bb eb36 f0bc 8ed4 a03d
00000370: ba47 29be 492b d1bd 7be9 d33d 5ab0 a7be
00000380: 18fb cabe dee5 3ebe ecea 813c aa42 2bbd
00000390: cca1 47bd 8553 86be da08 78be 2733 ba3e
000003a0: 3bb5 eebd 1023 55be ede1 b7bd b696 7d3c
000003b0: 7b2d a8be 5d8f ee3d f946 e13d f170 8d3d
000003c0: c3b1 3bbe cd84 4f3e 744f 943d 282b 993e
000003d0: 55fe 6cbe 1a76 08be 2ec7 ff3d 7b8e 24be
000003e0: 3b0b 0ebf 2692 bfbd 92c2 07bd ddfe 1a3d
000003f0: 8f45 67bd 8ab5 abbd 3ada 39be e8dd 2fbe

lstm.weight_ih_l1 f4 [512, 128]
-0.2081915 -0.018590726 0.11680063 -0.0056908927 0.08010606 0.09279862 -0.03126609 -0.033178836
0.00052828674 0.14612514 -0.009144525 0.025395883 -0.10277264 -0.061175287 0.20015618 -0.089844316
-0.18128918 0.055558234 -0.015665695 0.039341725 -0.100910865 -0.08362253 -0.10258554 0.033315565
0.004272989 0.033176456 0.012795001 -0.3105457 0.00038580858 -0.07548565 0.07445183 -0.13914461
-0.29341114 -0.14215557 0.21782078 0.035458628 0.07137233 0.21166699 -0.23348548 0.088473365
0.017489443 0.035592265 -0.07993934 -0.0016617161 -0.04564117 -0.09068445 0.117014624 -0.10547215
-0.08176106 0.19588129 0.13099635 0.048199873 0.05215219 0.07275212 0.15246053 0.096666716
-0.11546348 0.12564318 0.15416779 0.053112198 -0.03641766 0.025273688 0.30999112 0.05643568
-0.0396307 -0.079629034 -0.07401704 -0.04462008 -0.07139915 0.078513704 -0.088793114 -0.27094743
-0.11168867 -0.025845822 -0.11801432 0.17403132 -0.14427154 -0.024457777 0.00966638 0.19043949
-0.18761511 0.19896372 -0.1294103 -0.14182612 -0.113961905 -0.24305768 0.033612296 0.17074378
-0.18221337 0.06771442 -0.081845716 -0.20390666 0.11719801 0.014979214 -0.14220752 0.12923686
-0.057171077 0.08435504 -0.02496509 0.18601674 0.08855828 -0.15006188 -0.05721332 -0.13904232
-0.0036777668 -0.11541293 0.15106814 0.13997407 -0.14394517 -0.22285849 -0.047386825 -0.06362286
-0.11147108 0.093013816 -0.02574466 0.19515274 0.023987222 -0.20753506 0.13746119 0.058703538
0.035347648 0.06527642 -0.12105896 -0.064968035 0.0710405 0.06613601 -0.0026460425 0.04592546
-0.070036545 0.05695429 -0.08017002 0.25232273 -0.07249014 -0.1740891 0.18192357 0.036315408
-0.11901774 0.057147812 -0.077933535 -0.19183913 0.034700967 -0.21573903 0.09364844 -0.038050987
0.016832095 0.14525704 -0.12871598 -0.1720336 -0.04819593 0.14196175 0.0019984578 -0.18908319
0.19454752 -0.18588357 0.20287398 -0.010513774 0.07289522 -0.04583012 -0.033525024 -0.023519436
0.10023725 -0.07673674 0.03795005 -0.08016218 0.14304477 -0.17257932 -0.12151937 0.11358293
-0.16309318 -0.0731159 0.18052033 0.049061034 -0.1927191 -0.19633172 0.02391616 0.064583406
0.17280734 0.013391874 0.15145214 0.25840777 -0.14191385 -0.08689094 0.05165632 -0.18640356
0.07812776 0.02600208 -0.20772907 -0.11905757 -0.19638495 0.002058755 -0.0551754 -0.039581556
-0.06554643 -0.0032098445 0.0030659211 0.13879839 0.053087004 0.17209053 0.11758304 0.18867648
-0.08485384 0.0533036 0.046877675 -0.17117465 0.027502753 -0.043698825 0.035679292 -0.18061711
0.08106353 -0.08381846 0.046976306 0.17973386 -0.10138276 0.052565105 -0.086464375 0.09195782
-0.037245777 -0.18670288 0.036925316 -0.19612883 0.05287647 0.22042094 0.21129788 0.045542795
-0.04834707 0.12797308 0.01786942 0.1245298 0.004377458 0.075960375 0.15883082 -0.025587931
0.12113201 -0.14671649 -0.05887741 -0.14220294 -0.14546369 -0.12721637 -0.28534725 0.17537916
0.05917778 0.08230745 -0.220265 -0.085708156 0.18208638 -0.11534427 -0.015885232 0.011672965
-0.014416643 0.10444605 0.061478563 0.0962217 -0.0025027762 -0.065601245 0.07707351 -0.0002130385
00000000: 2730 55be 944b 98bc 2b35 ef3d ab7a babb
00000010: a50e a43d 340d be3d df10 00bd 88e6 07bd
00000020: b97c 0a3a d4a1 153e ebd2 15bc 070b d03c
00000030: 767a d2bd f092 7abd bef5 4c3e 4c00 b8bd
00000040: dfa3 39be 0891 633d 5855 80bc ca24 213d
00000050: 5baa cebd 4a42 abbd 5e18 d2bd e775 083d
00000060: 6e04 8c3b 09e4 073d 20a2 513c d9ff 9ebe
00000070: 5a46 ca39 3898 9abd 337a 983d ed7b 0ebe
00000080: fc39 96be 3b91 11be 690c 5f3e 113d 113d
00000090: a82b 923d 3bbf 583e d116 6fbe 8631 b53d
000000a0: 0546 8f3c 32c9 113d 3db7 a3bd f1cd d9ba
000000b0: 3cf2 3abd c5b8 b9bd 5da5 ef3d c801 d8bd
000000c0: 5872 a7bd 1b95 483e e823 063e 3b6d 453d
000000d0: 899d 553d 10ff 943d 9d1e 1c3e 33f9 c53d
000000e0: 1e78 ecbd 9ba8 003e 29de 1d3e 2d8c 593d
000000f0: af2a 15bd c40a cf3c 28b7 9e3e 1929 673d
00000100: cd53 22bd 8c14 a3bd 3f96 97bd 8cc3 36bd
00000110: b839 92bd cbcb a03d 2ad9 b5bd 9fb9 8abe
00000120: 08bd e4bd 9eba d3bc 7eb1 f1bd 4435 323e
00000130: ebbb 13be ad5b c8bc bc5f 1e3c 9202 433e
00000140: 2d1e 40be 25bd 4b3e 2284 04be de3a 11be
00000150: dc64 e9bd 1de4 78be 0cad 093d 75d7 2e3e
00000160: 2496 3abe dcad 8a3d ba9e a7bd e8cc 50be
00000170: 8305 f03d 616b 753c d99e 11be ab56 043e
00000180: 382c 6abd 56c2 ac3d 9783 ccbc 2c7b 3e3e
00000190: 0b5e b53d d2a9 19be 8458 6abd 1c61 0ebe
000001a0: b006 71bb 9d5d ecbd 9bb1 1a3e 5d55 0f3e
000001b0: 5d66 13be 0435 64be b018 42bd b44c 82bd
000001c0: f34a e4bd 077e be3d 77e6 d2bc 1fd6 473e
000001d0: da80 c43c 1284 54be a0c2 0c3e 1f73 703d
000001e0: b2c8 103d a5af 853d c3ed f7bd f60d 85bd
000001f0: af7d 913d 5172 873d 3a69 2dbb 561c 3c3d
00000200: 526f 8fbd e748 693d 2e30 a4bd 7230 813e
00000210: b675 94bd 6a44 32be 2c4a 3a3e 77bf 143d
00000220: 93bf f3bd d313 6a3d 9e9b 9fbd 7a71 44be
00000230: 9a22 0e3d b1ea 5cbe c1ca bf3d 5adb 1bbd
00000240: 76e3 893c 43be 143e 1fce 03be 9329 30be
00000250: 1869 45bd 6c5e 113e 8ff8 023b 069f 41be
00000260: 7737 473e 4358 3ebe 32be 4f3e f741 2cbc
00000270: 174a 953d 5db8 3bbd 8951 09bd d5ab c0bc
00000280: 3049 cd3d 2728 9dbd 8371 1b3d 122c a4bd
00000290: 547a 123e a2b8 30be 26df f8bd 2b9e e83d
000002a0: e601 27be cabd 95bd 52da 383e 39f4 483d
000002b0: 2858 45be 2f0b 49be d3eb c33c 4e44 843d
000002c0: 68f4 303e 9769 5b3c 4516 1b3e 064e 843e
000002d0: dd51 11be e1f3 b1bd 9495 533d 93e0 3ebe
000002e0: 7201 a03d 5002 d53c eeb6 54be 75d4 f3bd
000002f0: 2319 49be 2dec 063b 9aff 61bd 4520 22bd
00000300: 353d 86bd 415c 52bb 9fed 483b 2a21 0e3e
00000310: c271 593d 8038 303e 60cf f03d 6834 413e
00000320: dac7 adbd e054 5a3d ce02 403d 6848 2fbe
00000330: 744d e13c 8afd 32bd 7324 123d b1f3 38be
00000340: a304 a63d 03a9 abbd 3a6a 403d 270c 383e
00000350: c4a1 cfbd 824e 573d 3c14 b1bd 6254 bc3d
00000360: 078f 18bd 0a2f 3fbe 003f 173d ffd5 48be
00000370: ff94 583d 07b6 613e 795e 583e 158b 3a3d
00000380: 9407 46bd 600b 033e e462 923c 7b09 ff3d
00000390: c770 8f3b 1d91 9b3d 8ca4 223e c89d d1bc
000003a0: 0f14 f83d d93c 16be 7029 71bd a69d 11be
000003b0: 6ff4 14be 0245 02be 0919 92be 9896 333e
000003c0: 6664 723d cf90 a83d 268d 61be c287 afbd
000003d0: da74 3a3e 9e39 ecbd bf21 82bc f73f 3f3c
000003e0: c933 6cbc d0e7 d53d f2d0 7b3d e20f c53d
000003f0: 9e05 24bb f259 86bd b7d8 9d3d 1663 5fb9

lstm.weight_hh_l1 f4 [512, 128]
0.027308596 -0.12599789 -0.12853904 -0.034000285 -0.08871889 0.1639476 0.052376818 0.02183164
-0.13781388 -0.051710136 0.049677704 0.15943344 0.088193536 -0.05965072 0.15873578 0.06971572
-0.15075482 0.098392844 -0.010070962 -0.12118699 -0.0458457 0.014346947 0.11793465 -0.08806918
-0.08791432 0.0007026465 -0.028094476 -0.04722544 -0.0021319548 0.09369133 0.016960679 -0.02822093
0.068376265 -0.1493116 -0.03178056 0.109299086 -0.011814746 -0.13956814 -0.047534555 -0.28416803
-0.04966678 0.27497065 0.017246336 -0.11942105 -0.07347801 -0.013659442 0.015483796 -0.071201146
0.031242216 -0.013840086 -0.0049848133 0.0009942043 0.05333923 -0.013782212 -0.023059336 0.047894057
-0.10193338 0.23790975 -0.08915603 0.13784605 0.123631835 -0.11473556 0.02120959 0.10753192
-0.080924526 0.09920211 0.02265828 0.08772987 -0.29460144 0.041056372 -0.024011003 -0.2944985
-0.18078911 0.08451001 -0.13489193 0.059024252 0.04177692 0.041003317 -0.036428932 -0.05829919
0.15466733 -0.0029529762 -0.119688965 0.02808834 -0.09959111 0.027179206 -0.05202226 -0.17879796
-0.00834872 0.09238112 0.08908554 -0.023810102 0.07343518 0.047512557 0.020544572 -0.07802081
-0.113965206 0.19329533 -0.068696365 0.050870657 -0.2061254 -0.11796531 0.15776144 0.18184805
0.16900824 -0.1978899 -0.19847289 -0.19747284 -0.19680357 0.0054724026 -0.16636264 0.0050940206
0.19509795 0.109092824 -0.021137461 0.1701129 -0.06616981 0.185734 -0.035305727 0.06368387
-0.14225484 -0.102104396 -0.030551054 -0.074581 -0.16227354 0.006940181 -0.09185399 0.06676326
-0.13492382 -0.09092339 0.010085515 0.03279232 -0.051718485 -0.05883469 -0.17231114 0.19985192
0.043521427 -0.17692085 0.007901471 0.09438693 -0.013790052 -0.07641795 -0.3004273 0.0852491
0.09502257 0.13277549 -0.08194457 -0.053389937 -0.0092483945 0.04843709 0.08113066 0.05363216
-0.040973667 0.0731614 0.048456687 -0.14509588 -0.06328541 -0.14425912 0.10806508 -0.026834713
0.082699895 -0.016405055 -0.024876658 0.05749143 -0.052767277 -0.047330502 0.09578274 0.032750167
-0.0564566 0.14306363 -0.1729213 -0.04528406 -0.05486043 0.04557982 -0.13283424 -0.115863085
-0.012571952 -0.17393011 0.04720575 -0.16747212 0.155084 -0.12292157 -0.03435325 0.23395875
-0.109659284 0.057008147 -0.049329355 -0.014669627 -0.07179404 -0.10807519 -0.17056319 -0.13991202
-0.27519745 -0.35864025 0.2239641 0.027325064 -0.018821828 -0.13217913 -0.25012535 0.071622886
-0.16616455 0.024346018 0.14118183 -0.12525272 -0.07433964 -0.15004897 -0.28460774 0.18893695
-0.000977489 -0.12113741 -0.064904 -0.072266884 0.17964466 -0.025983615 0.078683935 0.109005526
0.1100196 -0.11378959 -0.016072927 0.05135915 -0.22257353 0.071213506 -0.11678422 0.033286955
0.06588493 0.1233375 -0.17346314 -0.17667314 -0.045267027 0.050757676 -0.12961778 0.10966852
0.10034969 -0.08695659 -0.050793342 -0.12657419 0.11838426 -0.06917251 -0.14750376 0.05864001
0.106060505 -0.15052266 -0.039052863 0.044633057 -0.14426306 0.20728448 0.23579097 0.0930884
0.073723726 -0.10174036 0.14029546 -0.053774215 -0.13305837 -0.28052264 0.04209121 0.104618885
00000000: 47b6 df3c 9705 01be bd9f 03be e243 0bbd
00000010: 40b2 b5bd e1e1 273e 1389 563d 44d8 b23c
00000020: 151f 0dbe 02ce 53bd d97a 4b3d 8542 233e
00000030: d09e b43d 5054 74bd a28b 223e 1ec7 8e3d
00000040: 795f 1abe 3082 c93d ad00 25bc e230 f8bd
00000050: b3c8 3bbd 750f 6b3c b987 f13d 9d5d b4bd
00000060: 6c0c b4bd cf31 383a 6326 e6bc 776f 41bd
00000070: 44b8 0bbb 3de1 bf3d 1ff1 8a3c 942f e7bc
00000080: db08 8c3d 24e5 18be 552c 02bd 33d8 df3d
00000090: a392 41bc f3ea 0ebe 98b3 42bd 797e 91be
000000a0: 656f 4bbd f4c8 8c3e 3048 8d3c 0693 f4bd
000000b0: a47b 96bd dacb 5fbc bfaf 7d3c e8d1 91bd
000000c0: adef ff3c 87c1 62bc a557 a3bb f64f 823a
000000d0: 3d7a 5a3d c9ce 61bc efe6 bcbc 8f2c 443d
000000e0: 73c2 d0bd 9d9e 733e 7097 b6bd 8427 0d3e
000000f0: b032 fd3d 7afa eabd bcbf ad3c b239 dc3d
00000100: c2bb a5bd 7a2a cb3d db9d b93c b8ab b33d
00000110: 00d6 96be ba2a 283d b9b2 c4bc 82c8 96be
00000120: c820 39be 9613 ad3d 1c21 0abe 6ac3 713d
00000130: 471e 2b3d 18f3 273d 8136 15bd 22cb 6ebd
00000140: 1d61 1e3e b886 41bb 7d1f f5bd 8519 e63c
00000150: 6df6 cbbd eda6 de3c 4b15 55bd d016 37be
00000160: 12c9 08bc 5032 bd3d 7b72 b63d 670d c3bc
00000170: 2f65 963d 879c 423d 174d a83c 60c9 9fbd
00000180: 9766 e9bd 36ef 453e aeb0 8cbd c05d 503d
00000190: 8912 53be cc97 f1bd 378c 213e 6036 3a3e
000001a0: 7f10 2d3e a6a3 4abe 7a3c 4bbe 5236 4abe
000001b0: e086 49be d751 b33b f85a 2abe beeb a63b
000001c0: c2c7 473e 0f6c df3d 7828 adbc 1332 2e3e
000001d0: 0a84 87bd 0e31 3e3e bd9c 10bd b06c 823d
000001e0: 41ab 11be 1c1c d1bd 3446 fabc ecbd 98bd
000001f0: 092b 26be 756a e33b f21d bcbd 2dbb 883d
00000200: 7829 0abe 0b36 babd b73d 253c 3d51 063d
00000210: c3d6 53bd a5fc 70bd 5572 30be fba5 4c3e
00000220: 8643 323d bd2a 35be 2c75 013c ef4d c13d
00000230: acef 61bc 0481 9cbd 9bd1 99be 1597 ae3d
00000240: 319b c23d 4cf6 073e 8ed2 a7bd 68af 5abd
00000250: 9486 17bc f865 463d d527 a63d 65ad 5b3d
00000260: 01d4 27bd a5d5 953d 857a 463d 0494 14be
00000270: c89b 81bd aab8 13be 3a51 dd3d 79d4 dbbc
00000280: 905e a93d e563 86bc 22ca cbbc 227c 6b3d
00000290: 8022 58bd a1dd 41bd be29 c43d 0a25 063d
000002a0: 093f 67bd 467f 123e 4812 31be c77b 39bd
000002b0: 55b5 60bd e8b1 3a3d b305 08be a049 edbd
000002c0: 97fa 4dbc bc1a 32be d15a 413d d07d 2bbe
000002d0: 57ce 1e3e 4ebe fbbd feb5 0cbd e292 6f3e
000002e0: 0c95 e0bd 6081 693d 940d 4abd e058 70bc
000002f0: c108 93bd 8656 ddbd 1ea8 2ebe 1945 0fbe
00000300: aee6 8cbe b29f b7be d856 653e d0d8 df3c
00000310: 3c30 9abc f759 07be 6e10 80be 05af 923d
00000320: 0a27 2abe 4d71 c73c f891 103e 4042 00be
00000330: 623f 98bd 70a6 19be 1bb8 91be b078 413e
00000340: 171f 80ba e416 f8bd 63ec 84bd a900 94bd
00000350: c5f4 373e 97db d4bc 0b25 a13d 4a3e df3d
00000360: f551 e13d 840a e9bd 5fab 83bc f95d 523d
00000370: 51ea 63be 63d8 913d 912c efbd e757 083d
00000380: aeee 863d 5f98 fc3d 52a0 31be cee9 34be
00000390: eb69 39bd 48e7 4f3d 86ba 04be e499 e03d
000003a0: 2384 cd3d 4c16 b2bd ae0c 50bd aa9c 01be
000003b0: 7273 f23d 51aa 8dbd 3a0b 17be 8230 703d
000003c0: 4036 d93d 9d22 1abe e5f5 1fbd 27d1 363d
000003d0: b2b9 13be 6242 543e 3073 713e 22a5 be3d
000003e0: 77fc 963d 405d d0bd 9da9 0f3e 5a42 5cbd
000003f0: 7440 08be aaa0 8fbe d567 2c3d 6d42 d63d

lstm.bias_ih_l1 f4 [512]
-0.085073 -0.170796 0.057947736 -0.08327381 0.08207856 0.014534725 -0.052292366 -0.090474516
-0.08423799 0.048280157 -0.013491603 -0.045892246 0.02058025 -0.12757418 0.41291112 -0.08767437
-0.15706278 0.08933301 -0.09527177 -0.26498803 -0.27972358 -0.1409313 0.05907087 -0.07509415
-0.13904811 -0.18509035 -0.097763285 -0.2096043 -0.08567048 0.11204671 -0.0844353 -0.09097606
-0.3581698 -0.16267535 0.02924471 0.0882462 -0.04354095 -0.069873735 0.0683264 -0.083713874
-0.076406226 -0.041183587 0.03714726 -0.10718493 -0.17718668 -0.07565402 -0.14066988 0.009907302
-0.26151654 -0.11964103 -0.19902243 -0.148438 -0.016282903 -0.048581965 -0.11708557 -0.011155769
-0.08723258 0.03311929 0.11316202 -0.14281817 -0.09085503 0.003927232 -0.05032888 -0.01562412
-0.016704524 0.032084875 -0.04131688 -0.07056389 0.04775763 -0.17883961 0.005163973 0.09145368
0.13185419 -0.098635025 -0.22941114 0.01623383 -0.07399001 0.08394312 0.008385578 -0.09147275
0.114736 -0.057630375 0.03898827 -0.098537825 -0.04943488 -0.016894987 -0.09785682 -0.10364434
0.009121563 -0.00658479 -0.07386035 -0.15592963 -0.008179439 -0.14011312 -0.18929423 -0.014592993
-0.08172278 -0.07287326 -0.114874646 -0.21228541 -0.17610286 0.0074555743 0.06069864 -0.043541513
0.20162167 -0.10451662 -0.07975102 -0.087150365 0.13416438 -0.15435925 -0.028578745 -0.06291567
-0.09949724 -0.25254887 -0.1532169 -0.099018626 -0.1395909 -0.12187159 -0.17512812 -0.21481673
-0.28553718 0.0721027 -0.11727811 0.011870128 -0.050541665 -0.15194106 -0.18272163 -0.008256739
-0.06870235 -0.23840071 0.06527308 -0.010547115 0.12217239 0.03869278 -0.10277067 -0.047246467
-0.07644676 -0.0810988 -0.12615478 0.14174516 0.16965258 0.018813964 0.18243587 -0.036023222
-0.045502 0.12002021 -0.086229995 -0.23121673 -0.1521003 -0.18356928 0.055083923 -0.2185654
-0.23245496 -0.119922005 -0.19564284 -0.2950024 -0.019074686 0.047425896 -0.09766068 0.015788563
-0.20491941 -0.13038452 0.047969937 0.010489783 -0.09447038 -0.012147574 -0.17498648 -0.3081604
-0.13686611 -0.00664306 -0.034880865 -0.12612118 -0.15140344 -0.13918479 -0.049975924 0.07055272
-0.16847526 -0.17374423 -0.2355691 -0.107897386 0.016037708 0.033450767 -0.12735929 -0.014137387
-0.1417164 -0.07056074 -0.055491813 -0.15280475 -0.25338548 -0.03519428 -0.018501746 -0.08432297
-0.017927738 -0.07334246 -0.0494931 -0.16686513 -0.13370244 -0.17094173 -0.20439771 -0.22857767
-0.10716375 -0.0627343 -0.10505378 -0.16305494 -0.1038126 0.10859603 -0.0070495303 0.0473845
0.042100098 -0.1291708 -0.042218294 -0.19079085 -0.08998677 0.051389936 -0.07198603 -0.10120908
-0.07941499 0.002778252 -0.05855211 -0.08111921 -0.09936307 -0.17492495 -0.27098915 -0.06919421
-0.13029355 -0.062156677 -0.07598862 -0.17748664 -0.08175884 -0.11040502 -0.10528836 -0.054833017
-0.14447467 0.04654063 -0.22410035 -0.05666706 0.26393387 -0.222498 -0.13137744 -0.24119219
-0.124550834 -0.31744993 -0.28501245 -0.040070496 -0.114974804 -0.010442564 -0.18773247 -0.2592441
-0.3583553 -0.10906682 -0.07915357 -0.17975783 0.04101004 -0.15885639 -0.26554266 -0.044119973
00000000: c13a aebd 26e5 2ebe 9b5a 6d3d 768b aabd
00000010: ce18 a83d 0e23 6e3c 8530 56bd b44a b9bd
00000020: f884 acbd 6ac1 453d e20b 5dbc 82f9 3bbd
00000030: ea97 a83c cea2 02be 1669 d33e 9f8e b3bd
00000040: 11d5 20be 3af4 b63d d91d c3bd 83ac 87be
00000050: ee37 8fbe 4b50 10be 4cf4 713d f6ca 99bd
00000060: a162 0ebe 5388 3dbe 1e38 c8bd 82a2 56be
00000070: 0174 afbd bf78 e53d 6aec acbd a851 babd
00000080: 0862 b7be 5e94 26be 9a92 ef3c 6cba b43d
00000090: ff57 32bd f619 8fbd b6ee 8b3d 2e72 abbd
000000a0: de7a 9cbd 1fb0 28bd ba27 183d c683 dbbd
000000b0: 6d70 35be 7ff0 9abd c40b 10be 3d52 223c
000000c0: 7fe5 85be 5b06 f5bd 89cc 4bbe 2200 18be
000000d0: b963 85bc e2fd 46bd 8fca efbd b0c6 36bc
000000e0: ffa6 b2bd 18a8 073d 7dc1 e73d ed3e 12be
000000f0: 3412 babd 03b0 803b a825 4ebd 4ffc 7fbc
00000100: edd7 88bc 6e6b 033d e43b 29bd cd83 90bd
00000110: 819d 433d bb21 37be 8c36 a93b 114c bb3d
00000120: c904 073e 2901 cabd c1ea 6abe cffc 843c
00000130: 1388 97bd 5fea ab3d aa63 093c 1156 bbbd
00000140: b5fa ea3d d40d 6cbd 2ab2 1f3d 33ce c9bd
00000150: 3b7c 4abd 5b67 8abc 2869 c8bd 7c43 d4bd
00000160: 9c72 153c 39c5 d7bb 1844 97bd 04ac 1fbe
00000170: 0e03 06bc d079 0fbe 59d6 41be 7317 6fbc
00000180: 465e a7bd 933e 95bd 6643 ebbd 5961 59be
00000190: 4f54 34be e44d f43b 239f 783d 9658 32bd
000001a0: e975 4e3e cf0c d6bd 8154 a3bd e47b b2bd
000001b0: 6362 093e 5a10 1ebe f91d eabc eed9 80bd
000001c0: 35c5 cbbd 164e 81be e4e4 1cbe 47ca cabd
000001d0: ebf0 0ebe d097 f9bd c954 33be ebf8 5bbe
000001e0: ee31 92be 95aa 933d 812f f0bd ed7a 423c
000001f0: c704 4fbd 7096 1bbe 611b 3bbe 4647 07bc
00000200: d1b3 8cbd 511f 74be e4ad 853d cecd 2cbc
00000210: 8535 fa3d 527c 1e3d 6e79 d2bd 8385 41bd
00000220: 1e90 9cbd 2117 a6bd b82e 01be a525 113e
00000230: 68b9 2d3e be1f 9a3c 78d0 3a3e 168d 13bd
00000240: 4e60 3abd 28cd f53d 5a99 b0bd 14c4 6cbe
00000250: 2ec0 1bbe 96f9 3bbe ae9f 613d 9ccf 5fbe
00000260: ac08 6ebe ab99 f5bd 9956 48be 8e0a 97be
00000270: 8442 9cbc a841 423d 5302 c8bd 0457 813c
00000280: 65d6 51be 8583 05be 207c 443d 57dd 2b3c
00000290: b079 c1bd 9e06 47bc a82f 33be 33c7 9dbe
000002a0: a126 0cbe 07ae d9bb 3ddf 0ebd e925 01be
000002b0: 8109 1bbe 7586 0ebe 8eb3 4cbd f27d 903d
000002c0: c784 2cbe 02ea 31be 0739 71be 4ef9 dcbd
000002d0: 8361 833c ac03 093d 796a 02be 80a0 67bc
000002e0: 1b1e 11be 2682 90bd 624b 63bd d978 1cbe
000002f0: bebb 81be e127 10bd f990 97bc 85b1 acbd
00000300: 31dd 92bc 9234 96bd 47b9 4abd b1de 2abe
00000310: 4be9 08be 590b 2fbe a24d 51be 4410 6abe
00000320: ab78 dbbd d77a 80bd 7026 d7bd e0f7 26be
00000330: b39b d4bd 9867 de3d bfff e6bb 4016 423d
00000340: 2771 2c3d 5a45 04be 17ed 2cbd ad5e 43be
00000350: fc4a b8bd 417e 523d 696d 93bd b546 cfbd
00000360: 54a4 a2bd 5513 363b 56d4 6fbd d421 a6bd
00000370: de7e cbbd 871f 33be 17bf 8abe b2b5 8dbd
00000380: ac6b 05be 0098 7ebd ec9f 9bbd 0fbf 35be
00000390: 2e71 a7bd 071c e2bd 6ca1 d7bd 9698 60bd
000003a0: 2bf1 13be 63a1 3e3d 907a 65be b81b 68bd
000003b0: 5722 873e 84d6 63be cf87 06be 16fb 76be
000003c0: 8214 ffbd cc88 a2be 27ed 91be f620 24bd
000003d0: e977 ebbd 4a17 2bbc f13c 40be a5bb 84be
000003e0: 597a b7be 6d5e dfbd 441b a2bd 7012 38be
000003f0: 25fa 273d 40ab 22be 35f5 87be 25b7 34bd

lstm.bias_hh_l1 f4 [512]
0.0037139722 -0.17269586 0.097928934 -0.08809337 0.12001769 -0.07177604 -0.06257444 -0.08331303
0.027865501 0.044143267 -0.092031136 -0.017354691 0.05084581 -0.2176047 0.4452564 -0.043354347
-0.11809999 0.008078749 -0.19014043 -0.16195183 -0.24619927 -0.08020249 -0.012998073 -0.22177511
-0.04981132 -0.11397142 -0.11340141 -0.14731307 -0.16981621 -0.04253561 -0.1680399 -0.02673748
-0.21685284 -0.045650575 -0.0386323 0.14291438 -0.07367637 0.00656072 -0.006916587 -0.20769227
-0.13105156 -0.023348112 -0.006983285 -0.055958044 -0.15131071 -0.076120116 -0.016791932 0.04108643
-0.300925 -0.22321177 -0.20580317 0.007607785 -0.10271795 0.015576184 -0.16654947 -0.12870847
-0.117625855 0.017230656 -0.033453308 -0.090991564 -0.015357913 -0.03859202 -0.05846607 0.0013811568
-0.08892836 -0.024877368 -0.107474774 -0.16371226 -0.048832566 -0.27080905 0.09233406 0.025869664
0.08266833 -0.12911451 -0.25629058 0.032667127 -0.12204362 0.03805761 -0.03361679 -0.0016579658
-0.01067832 -0.049587443 -0.051526375 -0.13423453 -0.04556934 -0.08734406 -0.17185147 -0.06252351
-0.07994509 -0.07971919 0.059039902 -0.09107416 -0.036759533 -0.18072566 -0.04490089 -0.08984446
0.02228713 -0.050622016 0.009997687 -0.12223011 -0.07216389 0.042782176 -0.0016251421 -0.053601995
0.1524267 0.012583313 -0.088242315 -0.05062584 0.0786791 -0.17311157 -0.113267206 -0.056934133
-0.06298459 -0.18606709 -0.20653357 -0.13754816 -0.22248755 -0.086284816 -0.13299684 -0.17085458
-0.41351077 0.17407738 -0.15913257 -0.07502133 -0.013217092 -0.18530291 -0.12680683 0.022175537
-0.04117559 -0.106510684 0.12314415 -0.078136876 0.16060637 -0.083008714 -0.08399247 0.02761789
-0.06154467 -0.08005641 -0.1743368 0.019480994 0.19382492 -0.05644659 0.17510363 -0.01659124
-0.004629042 0.17930445 -0.07024036 -0.18081379 -0.23809126 -0.15751983 0.044326857 -0.19796932
-0.23466362 -0.12112451 -0.03355925 -0.17326505 -0.14010857 -0.027311387 -0.13958173 0.053739056
-0.26190338 -0.0382179 0.049681544 -0.034313817 -0.013690583 -0.043276995 -0.11972172 -0.24091585
-0.05095085 0.1347457 -0.069696754 -0.07589156 -0.10097165 -0.049948424 -0.11132505 0.02884442
-0.109321356 -0.08825607 -0.14139862 -0.13224608 0.012267067 -0.13088596 -0.23066613 -0.14293782
-0.10454383 -0.039894354 0.048460238 -0.009275189 -0.09835153 -0.06436636 0.0067305514 -0.084372826
-0.006426783 0.03551362 0.012632833 -0.11238451 -0.15528837 -0.30564713 -0.19044487 -0.36316895
-0.13393687 -0.17387338 -0.24575475 -0.03069569 -0.09068961 0.15715474 -0.042304326 0.045562446
0.112959825 -0.20381486 -0.01650735 -0.209628 -0.097837284 -0.004221647 -0.2235382 -0.08316792
0.03598231 -0.018656816 0.019301329 -0.20724234 -0.10421534 -0.17654632 -0.27531227 0.008147752
-0.23312218 -0.08936625 -0.0025023266 -0.12061221 -0.14593577 -0.023985647 -0.1294458 -0.11305645
-0.102832004 -0.017716488 -0.0845451 0.0049581937 0.30391595 -0.1059703 0.03208093 -0.23757754
0.022031812 -0.2586591 -0.2842474 -0.14533187 -0.15555184 -0.048196904 -0.2055607 -0.16916284
-0.36629584 -0.025677077 -0.12511288 -0.048860632 0.017035011 -0.07295524 -0.23073503 -0.06575778
00000000: 1d66 733b 2fd7 30be f78e c83d 4c6a b4bd
00000010: d6cb f53d 51ff 92bd 0727 80bd 06a0 aabd
00000020: 3146 e43c 92cf 343d d27a bcbd 6d2b 8ebc
00000030: b243 503d c4d3 5ebe a6f8 e33e 5494 31bd
00000040: 68de f1bd bb5c 043c 2cb4 42be b3d6 25be
00000050: a91b 7cbe 3441 a4bd dff5 54bc 0419 63be
00000060: f406 4cbd d969 e9bd 003f e8bd 3dd9 16be
00000070: 4de4 2dbe d239 2ebd a712 2cbe 8f08 dbbc
00000080: ac0e 5ebe 19fc 3abd e73c 1ebd 2658 123e
00000090: a3e3 96bd 4ffb d63b 89a4 e2bb 48ad 54be
000000a0: 6132 06be 8a44 bfbc 0ad4 e4bb 4334 65bd
000000b0: 32f1 1abe dde4 9bbd 3c8f 89bc 3f4a 283d
000000c0: d712 9abe a091 64be 11be 52be ba4a f93b
000000d0: ca5d d2bd 4033 7f3c f28b 2abe 27cc 03be
000000e0: d3e5 f0bd 4e27 8d3c 5606 09bd c959 babd
000000f0: c29f 7bbc aa12 1ebd 1e7a 6fbd ef07 b53a
00000100: 1220 b6bd 9fcb cbbc bc1b dcbd 30a4 27be
00000110: a804 48bd 7ca7 8abe a419 bd3d 9eec d33c
00000120: 034e a93d 9836 04be 8538 83be f7cd 053d
00000130: 01f2 f9bd 4ce2 1b3d c2b1 09bd 1a50 d9ba
00000140: 1ff4 2ebc 341c 4bbd 520d 53bd c774 09be
00000150: eba6 3abd 71e1 b2bd d5f9 2fbe 530c 80bd
00000160: 40ba a3bd d143 a3bd d3d3 713d 1785 babd
00000170: 2a91 16bd 2610 39be ffe9 37bd 5f00 b8bd
00000180: 8093 b63c 0859 4fbd 57cd 233c c853 fabd
00000190: a9ca 93bd 5d3c 2f3d b802 d5ba c48d 5bbd
000001a0: bf15 1c3e 3d2a 4e3c 63b8 b4bd 0a5d 4fbd
000001b0: 8222 a13d 2944 31be a3f8 e7bd c433 69bd
000001c0: 11fe 80bd 5f88 3ebe 897d 53be 6dd9 0cbe
000001d0: c7d3 63be 18b6 b0bd 5330 08be 81f4 2ebe
000001e0: afb7 d3be 5741 323e a6f3 22be c8a4 99bd
000001f0: 808c 58bc 0cc0 3dbe a6d9 01be 79a9 b53c
00000200: bca7 28bd 4622 dabd 0033 fc3d 3a06 a0bd
00000210: ff75 243e 7900 aabd 3e04 acbd ea3e e23c
00000220: 4416 7cbd 9df4 a3bd 5985 32be 9b96 9f3c
00000230: 0a7a 463e 8a34 67bd 5e4e 333e 5aea 87bc
00000240: 38af 97bb 969b 373e 2eda 8fbd 4027 39be
00000250: 32ce 73be e14c 21be 1490 353d 78b8 4abe
00000260: a94b 70be 2110 f8bd 6d75 09bd 656c 31be
00000270: 9f78 0fbe 21bc dfbc 83ee 0ebe 7c1d 5c3d
00000280: 3318 86be 5f8a 1cbd e07e 4b3d a58c 0cbd
00000290: 784e 60bc 3843 31bd a930 f5bd a5b2 76be
000002a0: d7b1 50bd c7fa 093e 2cbd 8ebd 096d 9bbd
000002b0: 39ca cebd b896 4cbd 63fe e3bd 224b ec3c
000002c0: e0e3 dfbd 99bf b4bd cdca 10be 846b 07be
000002d0: cffb 483c f806 06be be33 6cbe 4b5e 12be
000002e0: 131b d6bd 4368 23bd 3e7e 463d f6f6 17bc
000002f0: 876c c9bd 83d2 83bd f58b dc3b a9cb acbd
00000300: c397 d2bb bb76 113d f1f9 4e3c da29 e6bd
00000310: ea03 1fbe c87d 9cbe fb03 43be 48f1 b9be
00000320: bf26 09be dd0b 32be 22a7 7bbe 8775 fbbc
00000330: 79bb b9bd 2ced 203e 4d47 2dbd b09f 3a3d
00000340: 7b57 e73d d8b4 50be 6c3a 87bc b9a8 56be
00000350: ea5e c8bd be55 8abb 33e7 64be f153 aabd
00000360: 3062 133d 2ed6 98bc d21d 9e3c 5637 54be
00000370: da6e d5bd 8fc8 34be bbf5 8cbe 267e 053c
00000380: 95b7 6ebe a705 b7bd 13fe 23bb 8903 f7bd
00000390: 3070 15be 8c7d c4bc 718d 04be 248a e7bd
000003a0: 9699 d2bd 2b22 91bc fb25 adbd 5878 a23b
000003b0: df9a 9b3e f506 d9bd 4b67 033d 8747 73be
000003c0: 0f7c b43c f76e 84be e088 91be e1d1 14be
000003d0: fb48 1fbe 1e6a 45bd 817e 52be 0639 2dbe
000003e0: 218b bbbe bc58 d2bc 971d 00be 1622 48bd
000003f0: 028d 8b3c 8f69 95bd ce45 6cbe 04ac 86bd
